…
/home/xw/anaconda3/envs/dibco_XW_DPLinkNet/lib/python3.6/site-packages/torch/nn/functional.py:3063: UserWarning: Default upsampling behavior when mode=bilinear is changed to align_corners=False since 0.4.0. Please specify align_corners=True if the old behavior is desired. See the documentation of nn.Upsample for details.
  "See the documentation of nn.Upsample for details.".format(mode))
/home/xw/anaconda3/envs/dibco_XW_DPLinkNet/lib/python3.6/site-packages/torch/nn/functional.py:1639: UserWarning: nn.functional.sigmoid is deprecated. Use torch.sigmoid instead.
  warnings.warn("nn.functional.sigmoid is deprecated. Use torch.sigmoid instead.")
----------------------------------------------------------------
        Layer (type)               Output Shape         Param #
================================================================
            Conv2d-1         [-1, 64, 128, 128]           9,408
       BatchNorm2d-2         [-1, 64, 128, 128]             128
              ReLU-3         [-1, 64, 128, 128]               0
         MaxPool2d-4           [-1, 64, 64, 64]               0
            Conv2d-5           [-1, 64, 64, 64]          36,864
       BatchNorm2d-6           [-1, 64, 64, 64]             128
              ReLU-7           [-1, 64, 64, 64]               0
            Conv2d-8           [-1, 64, 64, 64]          36,864
       BatchNorm2d-9           [-1, 64, 64, 64]             128
             ReLU-10           [-1, 64, 64, 64]               0
       BasicBlock-11           [-1, 64, 64, 64]               0
           Conv2d-12           [-1, 64, 64, 64]          36,864
      BatchNorm2d-13           [-1, 64, 64, 64]             128
             ReLU-14           [-1, 64, 64, 64]               0
           Conv2d-15           [-1, 64, 64, 64]          36,864
      BatchNorm2d-16           [-1, 64, 64, 64]             128
             ReLU-17           [-1, 64, 64, 64]               0
       BasicBlock-18           [-1, 64, 64, 64]               0
           Conv2d-19           [-1, 64, 64, 64]          36,864
      BatchNorm2d-20           [-1, 64, 64, 64]             128
             ReLU-21           [-1, 64, 64, 64]               0
           Conv2d-22           [-1, 64, 64, 64]          36,864
      BatchNorm2d-23           [-1, 64, 64, 64]             128
             ReLU-24           [-1, 64, 64, 64]               0
       BasicBlock-25           [-1, 64, 64, 64]               0
           Conv2d-26          [-1, 128, 32, 32]          73,728
      BatchNorm2d-27          [-1, 128, 32, 32]             256
             ReLU-28          [-1, 128, 32, 32]               0
           Conv2d-29          [-1, 128, 32, 32]         147,456
      BatchNorm2d-30          [-1, 128, 32, 32]             256
           Conv2d-31          [-1, 128, 32, 32]           8,192
      BatchNorm2d-32          [-1, 128, 32, 32]             256
             ReLU-33          [-1, 128, 32, 32]               0
       BasicBlock-34          [-1, 128, 32, 32]               0
           Conv2d-35          [-1, 128, 32, 32]         147,456
      BatchNorm2d-36          [-1, 128, 32, 32]             256
             ReLU-37          [-1, 128, 32, 32]               0
           Conv2d-38          [-1, 128, 32, 32]         147,456
      BatchNorm2d-39          [-1, 128, 32, 32]             256
             ReLU-40          [-1, 128, 32, 32]               0
       BasicBlock-41          [-1, 128, 32, 32]               0
           Conv2d-42          [-1, 128, 32, 32]         147,456
      BatchNorm2d-43          [-1, 128, 32, 32]             256
             ReLU-44          [-1, 128, 32, 32]               0
           Conv2d-45          [-1, 128, 32, 32]         147,456
      BatchNorm2d-46          [-1, 128, 32, 32]             256
             ReLU-47          [-1, 128, 32, 32]               0
       BasicBlock-48          [-1, 128, 32, 32]               0
           Conv2d-49          [-1, 128, 32, 32]         147,456
      BatchNorm2d-50          [-1, 128, 32, 32]             256
             ReLU-51          [-1, 128, 32, 32]               0
           Conv2d-52          [-1, 128, 32, 32]         147,456
      BatchNorm2d-53          [-1, 128, 32, 32]             256
             ReLU-54          [-1, 128, 32, 32]               0
       BasicBlock-55          [-1, 128, 32, 32]               0
           Conv2d-56          [-1, 256, 16, 16]         294,912
      BatchNorm2d-57          [-1, 256, 16, 16]             512
             ReLU-58          [-1, 256, 16, 16]               0
           Conv2d-59          [-1, 256, 16, 16]         589,824
      BatchNorm2d-60          [-1, 256, 16, 16]             512
           Conv2d-61          [-1, 256, 16, 16]          32,768
      BatchNorm2d-62          [-1, 256, 16, 16]             512
             ReLU-63          [-1, 256, 16, 16]               0
       BasicBlock-64          [-1, 256, 16, 16]               0
           Conv2d-65          [-1, 256, 16, 16]         589,824
      BatchNorm2d-66          [-1, 256, 16, 16]             512
             ReLU-67          [-1, 256, 16, 16]               0
           Conv2d-68          [-1, 256, 16, 16]         589,824
      BatchNorm2d-69          [-1, 256, 16, 16]             512
             ReLU-70          [-1, 256, 16, 16]               0
       BasicBlock-71          [-1, 256, 16, 16]               0
           Conv2d-72          [-1, 256, 16, 16]         589,824
      BatchNorm2d-73          [-1, 256, 16, 16]             512
             ReLU-74          [-1, 256, 16, 16]               0
           Conv2d-75          [-1, 256, 16, 16]         589,824
      BatchNorm2d-76          [-1, 256, 16, 16]             512
             ReLU-77          [-1, 256, 16, 16]               0
       BasicBlock-78          [-1, 256, 16, 16]               0
           Conv2d-79          [-1, 256, 16, 16]         589,824
      BatchNorm2d-80          [-1, 256, 16, 16]             512
             ReLU-81          [-1, 256, 16, 16]               0
           Conv2d-82          [-1, 256, 16, 16]         589,824
      BatchNorm2d-83          [-1, 256, 16, 16]             512
             ReLU-84          [-1, 256, 16, 16]               0
       BasicBlock-85          [-1, 256, 16, 16]               0
           Conv2d-86          [-1, 256, 16, 16]         589,824
      BatchNorm2d-87          [-1, 256, 16, 16]             512
             ReLU-88          [-1, 256, 16, 16]               0
           Conv2d-89          [-1, 256, 16, 16]         589,824
      BatchNorm2d-90          [-1, 256, 16, 16]             512
             ReLU-91          [-1, 256, 16, 16]               0
       BasicBlock-92          [-1, 256, 16, 16]               0
           Conv2d-93          [-1, 256, 16, 16]         589,824
      BatchNorm2d-94          [-1, 256, 16, 16]             512
             ReLU-95          [-1, 256, 16, 16]               0
           Conv2d-96          [-1, 256, 16, 16]         589,824
      BatchNorm2d-97          [-1, 256, 16, 16]             512
             ReLU-98          [-1, 256, 16, 16]               0
       BasicBlock-99          [-1, 256, 16, 16]               0
          Conv2d-100            [-1, 512, 8, 8]       1,179,648
     BatchNorm2d-101            [-1, 512, 8, 8]           1,024
            ReLU-102            [-1, 512, 8, 8]               0
          Conv2d-103            [-1, 512, 8, 8]       2,359,296
     BatchNorm2d-104            [-1, 512, 8, 8]           1,024
          Conv2d-105            [-1, 512, 8, 8]         131,072
     BatchNorm2d-106            [-1, 512, 8, 8]           1,024
            ReLU-107            [-1, 512, 8, 8]               0
      BasicBlock-108            [-1, 512, 8, 8]               0
          Conv2d-109            [-1, 512, 8, 8]       2,359,296
     BatchNorm2d-110            [-1, 512, 8, 8]           1,024
            ReLU-111            [-1, 512, 8, 8]               0
          Conv2d-112            [-1, 512, 8, 8]       2,359,296
     BatchNorm2d-113            [-1, 512, 8, 8]           1,024
            ReLU-114            [-1, 512, 8, 8]               0
      BasicBlock-115            [-1, 512, 8, 8]               0
          Conv2d-116            [-1, 512, 8, 8]       2,359,296
     BatchNorm2d-117            [-1, 512, 8, 8]           1,024
            ReLU-118            [-1, 512, 8, 8]               0
          Conv2d-119            [-1, 512, 8, 8]       2,359,296
     BatchNorm2d-120            [-1, 512, 8, 8]           1,024
            ReLU-121            [-1, 512, 8, 8]               0
      BasicBlock-122            [-1, 512, 8, 8]               0
          Conv2d-123            [-1, 512, 8, 8]       2,359,808
          Conv2d-124            [-1, 512, 8, 8]       2,359,808
          Conv2d-125            [-1, 512, 8, 8]       2,359,808
        DACblock-126            [-1, 512, 8, 8]               0
       MaxPool2d-127            [-1, 512, 4, 4]               0
          Conv2d-128              [-1, 1, 4, 4]             513
       MaxPool2d-129            [-1, 512, 2, 2]               0
          Conv2d-130              [-1, 1, 2, 2]             513
       MaxPool2d-131            [-1, 512, 1, 1]               0
          Conv2d-132              [-1, 1, 1, 1]             513
        SPPblock-133            [-1, 515, 8, 8]               0
          Conv2d-134            [-1, 128, 8, 8]          66,048
     BatchNorm2d-135            [-1, 128, 8, 8]             256
 ConvTranspose2d-136          [-1, 128, 16, 16]         147,584
     BatchNorm2d-137          [-1, 128, 16, 16]             256
          Conv2d-138          [-1, 256, 16, 16]          33,024
     BatchNorm2d-139          [-1, 256, 16, 16]             512
    DecoderBlock-140          [-1, 256, 16, 16]               0
          Conv2d-141           [-1, 64, 16, 16]          16,448
     BatchNorm2d-142           [-1, 64, 16, 16]             128
 ConvTranspose2d-143           [-1, 64, 32, 32]          36,928
     BatchNorm2d-144           [-1, 64, 32, 32]             128
          Conv2d-145          [-1, 128, 32, 32]           8,320
     BatchNorm2d-146          [-1, 128, 32, 32]             256
    DecoderBlock-147          [-1, 128, 32, 32]               0
          Conv2d-148           [-1, 32, 32, 32]           4,128
     BatchNorm2d-149           [-1, 32, 32, 32]              64
 ConvTranspose2d-150           [-1, 32, 64, 64]           9,248
     BatchNorm2d-151           [-1, 32, 64, 64]              64
          Conv2d-152           [-1, 64, 64, 64]           2,112
     BatchNorm2d-153           [-1, 64, 64, 64]             128
    DecoderBlock-154           [-1, 64, 64, 64]               0
          Conv2d-155           [-1, 16, 64, 64]           1,040
     BatchNorm2d-156           [-1, 16, 64, 64]              32
 ConvTranspose2d-157         [-1, 16, 128, 128]           2,320
     BatchNorm2d-158         [-1, 16, 128, 128]              32
          Conv2d-159         [-1, 64, 128, 128]           1,088
     BatchNorm2d-160         [-1, 64, 128, 128]             128
    DecoderBlock-161         [-1, 64, 128, 128]               0
 ConvTranspose2d-162         [-1, 32, 256, 256]          32,800
          Conv2d-163         [-1, 32, 256, 256]           9,248
          Conv2d-164          [-1, 1, 256, 256]             289
     DPLinkNet34-165          [-1, 1, 256, 256]               0
================================================================
Total params: 28,738,244
Trainable params: 28,738,244
Non-trainable params: 0
----------------------------------------------------------------
Input size (MB): 0.75
Forward/backward pass size (MB): 203.96
Params size (MB): 109.63
Estimated Total Size (MB): 314.34
----------------------------------------------------------------

Process finished with exit code 0
…
